Exercises/0- Quick start/simple_nn_model.pth (torch, 974560 bytes, 8 tensors)

four_layer_stack.0.weight f4 [256, 784]
000000 08 db 19 3c ca 27 a7 bc 43 61 cc bc 80 8d ac b9
       0.0093906 -0.020404715 -0.024948722 -0.00032911822
000010 d8 0e 50 3c c6 85 ce 3c b3 91 ab bc d0 bc 2c 3c
       0.0126988515 0.025210273 -0.020943498 0.010543063
000020 1e 6b c8 bc e0 f3 26 bc d8 c2 9a 3c fc 47 f7 bc
       -0.02446514 -0.01018998 0.018891737 -0.030185692
000030 7f 0e f3 3c a6 e3 cc 3c 94 73 ac bc 4a db 43 bc
       0.029669998 0.025010895 -0.021051206 -0.011954138
000040 8a b4 e9 bc 08 18 b2 3c 97 de 03 bd 40 f0 1d bc
       -0.02852847 0.021739975 -0.0321947 -0.0096398
000050 20 65 97 ba 72 0d 20 bc 60 b7 87 3a 88 01 9a 3c
       -0.0011550523 -0.009768831 0.0010354333 0.018799558
000060 ca 77 bb 3c 44 5e 0a bd 94 fa 0b bd 20 f3 8d ba
       0.022884268 -0.033781305 -0.034174517 -0.0010829903
000070 5a bc 02 bd 6c e2 b3 3c a0 ab 9a 3c 00 7c aa bb
       -0.031917907 0.021958552 0.018880665 -0.0052027702
000080 43 63 e0 bb 59 2d 99 3b c6 43 09 3d 91 e8 8f 3c
       -0.0068477704 0.0046745953 0.0335119 0.017566951
000090 8e 20 66 3b d4 c5 80 bb 2e e8 0a bd c6 4f 02 3b
       0.003511462 -0.003929833 -0.03391283 0.0019883974
0000a0 1a c1 af 3d f7 47 49 3d 1c 6f 7d 3e 3d d2 75 3e
       0.08581753 0.049140897 0.24749416 0.24005981
0000b0 37 b9 bc 3d ed 5b 1c 3c f7 17 27 bd f9 dc 13 bd
       0.092150144 0.009543401 -0.04079434 -0.036099408
0000c0 a2 08 41 3d 54 ee 51 3d 27 1d dc 3d 93 68 e5 3c
       0.047127374 0.051252678 0.10747748 0.028003966
0000d0 8c 72 83 3c c0 86 03 bc 6a 05 8d bc 92 2c cc 3c
       0.016045831 -0.008027732 -0.017214496 0.024923597
0000e0 78 70 40 3c 4c 5a a3 bc 9a cb 8b bc 8c 4a e2 3d
       0.011745565 -0.019940518 -0.017064858 0.11049375
0000f0 f1 db 03 3e ec 76 cb 3c 74 64 88 3d f5 13 48 3d
       0.1287687 0.02483698 0.06659785 0.048847158
000100 71 da 49 bd 5e 29 db bd 34 4c 20 3d 58 a8 48 3e
       -0.049280588 -0.107012495 0.039135173 0.19595468
000110 1b e1 e7 3b 8c 67 f3 bc 72 6d 07 bb f9 37 8e bd
       0.007076395 -0.029712461 -0.00206646 -0.0694427
000120 b5 6a d9 bd 0a a1 26 3d 29 2a 2a bd 15 fa c3 3d
       -0.10616056 0.040680923 -0.041544113 0.09569184
000130 6e 01 bc 3d ae a8 ac 3d b3 a8 f0 3d 66 96 db 3d
       0.0917996 0.084306106 0.11750927 0.107220456
000140 9c bb 89 bd 42 4e 4a bd 8c 25 bc 3c e0 d3 9d bc
       -0.06725237 -0.04939104 0.022967122 -0.019266069
000150 2c 42 f5 bc 74 32 81 3c b0 c6 d9 3d 64 8f 3b 3e
       -0.02993878 0.015771128 0.106336 0.18316418
000160 d1 d9 f6 3d 75 7f 8e 3c df 56 43 3d 48 ef ee 3d
       0.12053264 0.01739476 0.04769027 0.11666733
000170 e5 75 a7 bd d3 c6 36 be 8a dd d8 bd 1a ef f7 bd
       -0.081767835 -0.17849283 -0.1058913 -0.12106152
000180 0e 45 41 be f1 b0 86 be 59 e5 8c bd fc b4 ea bd
       -0.18873999 -0.2630687 -0.06879682 -0.11460301
000190 61 7d 48 be 99 e1 4a be 25 62 67 be 06 1c e7 bd
       -0.19579078 -0.19812621 -0.22596033 -0.11284642
0001a0 cd 56 32 be ec 18 f6 bd 53 37 b6 bc 8a 02 60 3d
       -0.17415924 -0.12016472 -0.022243178 0.05468992
0001b0 2d 1d 5e be f6 7f b6 3d 41 e7 54 bb d8 c5 b6 3b
       -0.21690817 0.08911125 -0.003248647 0.005577784
0001c0 40 96 d7 3a bd 95 8d 3c f4 73 b0 3d cc 9b 9d 3d
       0.0016447976 0.017283315 0.08615866 0.076957315
0001d0 16 cc 1c 3c fc d1 29 bd dd 3b 58 bd 47 54 30 bd
       0.009570142 -0.041460022 -0.052791465 -0.043049123
0001e0 5b e3 8d 3a a0 2b 1e bd 30 aa 7d be 24 b8 cf be
       0.0010825203 -0.038615823 -0.24771953 -0.40570176
0001f0 35 29 5e be ae ce 03 3e e8 e9 52 3e 41 3f 8b 3e
       -0.21695407 0.12871811 0.2059704 0.27196696
000200 23 91 40 3e 30 0a a6 bc 53 be 3c be 96 6f 13 be
       0.18805365 -0.02026853 -0.18431978 -0.14398035
000210 ed 44 15 be be a8 83 bb 0f 3b 5f 3d 23 e1 b5 bd
       -0.14577074 -0.0040179184 0.054499682 -0.08880832
000220 6b 75 91 be d8 85 1c bd 61 e3 1e 3e 06 e1 8d 3d
       -0.28409895 -0.03821358 0.15516426 0.069276854
000230 f8 f4 b7 bb 00 82 a2 3b e7 56 a9 3d 15 c8 5b 3e
       -0.0056139193 0.004959345 0.082685284 0.21463044
000240 a1 3f f5 3d e7 bf c6 3d a6 a1 23 be ce ca 99 be
       0.11975027 0.09704571 -0.15979633 -0.3003754
000250 2a df 8e be 36 a9 b3 be 00 b7 17 bf 6e 9c 16 bf
       -0.27904636 -0.35090035 -0.5926361 -0.5883244
000260 15 bf c6 be a3 9c b0 bd 68 53 08 bd 3c 60 fc 3d
       -0.3881766 -0.08623626 -0.033282667 0.12323043
000270 fc 6a a6 3d be 5d 84 bc 05 2e e6 bd 04 1b 5b 3d
       0.081258744 -0.016157981 -0.11239246 0.05349256
000280 b3 c1 6f bc f8 40 22 3d 0e 79 81 3d 79 31 fe bd
       -0.014633584 0.03961274 0.063219175 -0.1241178
000290 5d 08 1d bd 52 29 d9 3b ea ac 0c 3d 42 41 17 3d
       -0.038338054 0.00662724 0.03434459 0.03692747
0002a0 16 2a db 3c 6e 93 bb bd ed 46 2f 3b 95 7b 83 3d
       0.026753467 -0.09158979 0.0026745156 0.06420056
0002b0 c3 02 08 3e 76 24 b1 bd 03 49 39 3b 9c 6c f7 3d
       0.13282304 -0.086495325 0.0028272278 0.120812625
0002c0 35 88 d8 bb 3c e4 a7 be 5a 8d ed be 81 f5 9e be
       -0.006608034 -0.32791317 -0.46396905 -0.3104668
0002d0 ef 75 9c be 8e 12 43 be a6 15 b8 bd c7 a9 6e 3c
       -0.30558726 -0.19050047 -0.08988504 0.014566845
0002e0 57 03 5a 3d df 63 d3 3c 17 8a 0a 3d 9b 8f 0c 3d
       0.05322584 0.025804458 0.0338231 0.03431664
0002f0 28 01 9e 3d fb 99 60 3c 9f 17 68 3a de 26 b5 3d
       0.07715064 0.013708587 0.00088536175 0.08845304
000300 16 64 8d 3d 8e c6 d1 3d 5f 72 c0 bd e8 5d 14 be
       0.069038555 0.102429494 -0.093968146 -0.14488947
000310 ee ff e2 3c 9e 3d 17 be 70 28 29 bd db 60 5f be
       0.027709927 -0.14769599 -0.04129833 -0.21814291
000320 ce 7c 13 3e a5 8d d3 3c 80 b3 04 3d ca c3 5e 3d
       0.14403078 0.025824377 0.032397747 0.054385938
000330 7f 02 e3 bc 0a d3 8a be ed 08 f6 be 7d 30 af be
       -0.027711151 -0.27114135 -0.48053685 -0.3421668
000340 16 92 af be 7a fe 42 be 44 ea c8 3c 85 13 ed bb
       -0.34291142 -0.19042388 0.024525769 -0.007234993
000350 44 95 66 bd 2c 21 67 bd db a9 de 3d 27 1d f9 ba
       -0.056294695 -0.05642812 0.10872241 -0.001900588
000360 94 48 dd bb ee 8d 56 3c 84 5d 39 3c 2b 72 23 3e
       -0.0067530368 0.013095362 0.0113138 0.1596152
000370 9c be 4f 3e f6 6d c0 3d 36 39 34 3d 3a 78 10 be
       0.20287555 0.093959734 0.043999873 -0.14108363
000380 17 ef 29 3e 7f 82 1a be 42 67 cd bd 4e 86 0f bd
       0.16595112 -0.15088843 -0.100294605 -0.035040192
000390 0e 48 b9 3d da 1e e7 3c b2 64 16 3e 5c 84 70 bd
       0.090469465 0.028212953 0.1468685 -0.058719978
0003a0 0d b8 58 bd e6 c8 a2 be 30 b4 9b be d1 ab 0a bf
       -0.0529099 -0.31793898 -0.3041091 -0.5416842
0003b0 c6 90 f3 be d4 68 1f be d7 e7 be 3d 3b 89 75 3a
       -0.4757139 -0.15567333 0.09321564 0.0009366457
0003c0 5c 63 86 3d 91 69 5c bb 2f 07 96 3d 4f 97 06 bd
       0.0656192 -0.0033632258 0.07325589 -0.032859143
0003d0 67 20 19 bd 1c 95 25 3d a5 89 78 3d c9 e4 64 3e
       -0.037384417 0.040425405 0.060678143 0.223529
0003e0 10 50 5b 3e 41 ec 18 3d 4d a1 c3 3d 70 fa 44 3d
       0.2141726 0.037334684 0.0955225 0.0480904
0003f0 3c dd c4 3b 9f ea 0d be 70 3e 8e bd 80 06 bf 3c
       0.0060078185 -0.13859032 -0.06945503 0.02331853

four_layer_stack.0.bias f4 [256]
000000 05 49 8e 3d 5c 17 b8 3c 9f 16 9d bc 50 39 c5 bb
       0.06947521 0.022472076 -0.019175826 -0.006018795
000010 ae 56 60 bc f9 9a 51 3d 97 74 2f bd dc 60 0e 3c
       -0.013692541 0.051173184 -0.042835798 0.008690085
000020 84 c2 0e 3d 66 5e 1d bd 9d 7a e1 bd ae 35 20 3c
       0.034853473 -0.038420103 -0.11009715 0.009778423
000030 b7 4f 97 3d d4 89 e8 3c 3d bc 11 bd 78 ca ef bd
       0.07388251 0.028386034 -0.03557991 -0.1170854
000040 fb 95 c1 3c 3b 7d 8e bc ea ed 50 bd 08 46 30 3d
       0.023631087 -0.017393699 -0.051008143 0.043035537
000050 1e 44 ba 3d 5b 5f 83 bd 5e 03 ac 3d ba bb 54 3e
       0.090950236 -0.06414672 0.0839908 0.20774737
000060 61 d6 17 3b cf 66 83 3d 06 2a 77 3c d3 42 76 bd
       0.0023168551 0.064160936 0.015085703 -0.060122322
000070 18 4c 47 3b 72 2b 38 3c c9 14 82 bd 54 c6 cc bd
       0.0030410346 0.011240827 -0.06351621 -0.099987656
000080 55 bf f7 bc 18 68 d5 3d 80 f0 82 bd a9 4d 63 3d
       -0.030242601 0.10420245 -0.06393528 0.055493984
000090 e1 37 e9 bb 55 e6 9e bd f3 2b c9 3d 2b 56 26 3e
       -0.007117257 -0.07758776 0.09822836 0.16243808
0000a0 b0 ed 3d 3d af 4a 32 be 0c 14 f3 bd 61 04 85 3d
       0.046369255 -0.17411302 -0.11869058 0.06494976
0000b0 5a 05 5d 3d d5 f3 a3 3d 93 59 2a bd e5 83 a9 bd
       0.05396018 0.08005492 -0.04158933 -0.0827711
0000c0 c0 31 c1 bd 9e d6 df bc 31 7d 97 3a 37 df b5 3a
       -0.09433317 -0.027324017 0.0011557696 0.0013875727
0000d0 8c 2d 1f bd 9b 39 03 bd ec 56 b1 3c 56 ce b1 bd
       -0.038861796 -0.03203736 0.021647893 -0.086819336
0000e0 87 0a 75 bc 63 cd 0c bd 92 23 8c 3c a8 63 1a be
       -0.014956123 -0.03437556 0.017106805 -0.15077078
0000f0 d2 d5 8b bd 0b b5 ee bb 4a e7 05 3e b7 94 0f 3e
       -0.06827892 -0.0072847656 0.13076511 0.14021574
000100 ef 2e 39 3d d7 94 02 3d 53 63 49 bd 2a 61 3e 3d
       0.045210775 0.031880226 -0.04916699 0.04647938
000110 8e dd 9c 3d 4c 5e d4 bc 65 db 52 bb 10 54 b2 3d
       0.07659446 -0.02592387 -0.0032174226 0.0870744
000120 09 91 f5 3d 8a bc c0 bd 9e 31 c7 3c d3 a5 05 be
       0.11990554 -0.09410961 0.024315652 -0.13051538
000130 4b b9 1d 3d 3e a4 05 be 47 47 b1 3d 26 42 d7 3b
       0.038506787 -0.13050935 0.08656173 0.006569165
000140 66 2e 91 3c 9c d0 df bd 9d 27 18 bd 77 4a c1 bc
       0.01772232 -0.10928461 -0.037147153 -0.023595078
000150 cd 90 9d bc fd 6b 3c bd 09 ba 8d 3d 46 77 ad 3c
       -0.019234085 -0.046001423 0.06920249 0.021175038
000160 ac 1d 7e 3c 12 ca bf bb 94 9a 0b bd dc 04 23 3c
       0.015510004 -0.005852946 -0.034082964 0.009949889
000170 17 50 2a 3a b6 c2 e2 bc 2e f4 f1 bd 10 0f 2f 3c
       0.00064969197 -0.027680736 -0.11814152 0.0106847435
000180 40 99 78 3d 48 49 db 3c e8 d4 4d 3c 21 6c 9c bd
       0.060693026 0.026768342 0.012562968 -0.076378115
000190 6a 6d 7d bc 2a 6a dc 39 0c fd 77 3b 33 d0 f8 3d
       -0.015467981 0.00042040768 0.0037840037 0.12149086
0001a0 fb de 65 bd b2 7c 01 3c e0 5a 95 bd 73 ad a4 bd
       -0.056120854 0.007903265 -0.07292724 -0.08040895
0001b0 dd d0 8b 3a d3 93 24 be b9 ee 11 3d 6f 73 1a 3e
       0.0010667105 -0.16072015 0.035628054 0.15083097
0001c0 17 00 5c 3d 44 54 05 3e 31 ce 1a bd 08 13 9d 3b
       0.053711023 0.13020426 -0.037794296 0.0047935285
0001d0 86 59 64 bd 2a c0 e0 3d ad 51 b5 3d 52 b0 a4 bd
       -0.05574944 0.109741524 0.08853469 -0.08041443
0001e0 d5 03 57 3d 8e 04 96 3c 81 78 0c bd 0e 36 36 bd
       0.05249389 0.018312719 -0.03429461 -0.044485144
0001f0 ac 9f 89 3d ef 8d 64 3c e4 6e 2c 3e d5 85 51 3d
       0.06719908 0.013949855 0.16839176 0.051153023
000200 f9 f6 92 3d 3b 25 dd bc dc ed b6 bc 69 59 35 3b
       0.071760125 -0.026995292 -0.022330217 0.00276717
000210 79 4a d7 bc a2 4f 81 3c b0 67 87 3c 52 ad 02 be
       -0.026280629 0.015785042 0.016528934 -0.12761429
000220 fb c1 df 3d 80 c9 fc 3c ae 05 0a 3c 97 4a 64 bd
       0.10925671 0.030857801 0.008424206 -0.055735197
000230 a3 0b e3 bc 79 36 81 bd 42 56 22 3d 68 ca df bd
       -0.02771551 -0.06309218 0.039633043 -0.10927278
000240 d1 42 da 3c d0 37 ed 3c 39 9f c7 bb 50 de 27 bd
       0.026643189 0.028957278 -0.006091979 -0.040983498
000250 e2 cd 24 be 5b ac 2e bd 44 bc 55 bc e8 2e 63 bd
       -0.16094163 -0.04264484 -0.013045374 -0.055464655
000260 04 db dd 3d 06 cd 88 bd be 43 8b bd 01 b8 04 bd
       0.108327895 -0.0667973 -0.0680003 -0.032402042
000270 3f 1e aa bd e4 26 d0 bd 13 80 48 bc 55 a2 03 3e
       -0.0830655 -0.10163668 -0.0122375665 0.12854894
000280 b1 c5 03 bd b6 2a e0 3c 82 1c 75 3d 44 d3 11 3e
       -0.032170955 0.027364116 0.05984164 0.14240748
000290 4f 29 17 be 08 65 28 3c 79 54 8d bd 1c a2 39 be
       -0.14761852 0.010277994 -0.069008775 -0.18128246
0002a0 98 4d c0 3b 0a ff b5 3d 70 c1 3e 3d 18 f1 b3 3c
       0.005868625 0.088865355 0.046571195 0.021965548
0002b0 ce 2c 0e 3d d5 c8 e7 bd 65 f8 fa 3b 25 13 af bb
       0.034710698 -0.113176025 0.0076590055 -0.0053428584
0002c0 71 a7 03 3e f9 42 46 bd a9 d0 b6 3d 98 d9 60 bd
       0.12856843 -0.048403714 0.089265175 -0.054895014
0002d0 00 92 6b 3d 0f ef 92 bd 3e 11 c2 3d 50 01 39 3d
       0.057512283 -0.07174503 0.09475945 0.045167267
0002e0 c1 31 62 3c 1c ce 50 3c 11 20 c2 bd 5e ee 9a bc
       0.013805808 0.012744453 -0.094787724 -0.01891249
0002f0 ae d2 a3 bd 8a 35 f0 3a a6 6b 5d 3b 31 db 67 bd
       -0.07999168 0.0018326503 0.0033786087 -0.05660552
000300 b7 e2 08 bd 72 5e 6c bd cb 10 c4 3d db 37 a9 bd
       -0.033419337 -0.057707258 0.095735155 -0.08262607
000310 28 2a 40 3a 8a bc 7d bc 14 21 ff bb 0a cf 42 bc
       0.00073305005 -0.015486846 -0.0077859256 -0.011890182
000320 17 b5 ad bc 2f 0a 05 3e 6e e0 c8 bb 0a a3 73 bd
       -0.021204514 0.12992166 -0.0061302697 -0.059481658
000330 f2 09 46 bb 23 18 6d bd ef 02 8b 3d 82 75 7b bd
       -0.003021833 -0.057884347 0.06787669 -0.06139136
000340 f0 9c ff 3d c1 e5 68 3d 2f e8 3d 3c 42 aa 06 3d
       0.12481105 0.056859735 0.011591001 0.032877214
000350 53 38 85 bd ef a4 8b bc d0 19 75 3b 6f 8c 67 3d
       -0.065048836 -0.01704642 0.0037399419 0.056530412
000360 12 db 7e 3d bb 1a 89 3d e7 de 02 be b4 2f 30 bc
       0.06222064 0.066945516 -0.12780343 -0.010753561
000370 78 93 cb bd 6e 99 87 3d 46 64 37 3d a7 d5 a4 bc
       -0.09940237 0.06621061 0.044773363 -0.020121409
000380 f4 7b 0f bd 54 74 f3 bd f9 6f 20 3d 70 37 57 3c
       -0.03503032 -0.11887422 0.039169285 0.013135776
000390 84 38 7c 3d 52 1e 2b bd 24 07 74 bc 29 99 9d 3b
       0.061577335 -0.041776963 -0.014894281 0.004809518
0003a0 a6 39 be 3c 95 cb 2b bc 14 ed 16 be 9d 6f 3d bd
       0.023220848 -0.010485549 -0.14738876 -0.04624902
0003b0 f9 75 75 3e 1e 2a b4 3d f2 08 73 3d 85 63 d0 bd
       0.23970784 0.08797096 0.059334703 -0.10175232
0003c0 fc 8b 80 bd eb 7d d5 bc 28 f6 1e 3e 37 d2 b3 bd
       -0.062767 -0.026061019 0.15523589 -0.0878033
0003d0 b1 26 79 bd ab e6 52 bc 27 0c 3b bd 5b 40 37 bd
       -0.060827915 -0.012872378 -0.045665886 -0.04473911
0003e0 f3 f3 39 3d db ce 82 3d d4 60 59 bd ff 5d 8f 3c
       0.045398664 0.06387111 -0.053070858 0.017500876
0003f0 b2 9c b4 bd 3c 5f 00 be 4b 91 95 3d f9 70 43 be
       -0.0881895 -0.12536329 0.07303103 -0.19086064

four_layer_stack.2.weight f4 [128, 256]
000000 46 f3 ab be 16 20 58 3e 15 b0 f0 3d 8a 42 9e 3b
       -0.3358404 0.2110599 0.11752335 0.0048297094
000010 5e ec a9 3d 42 fb 0a be 12 b8 5b 3c 4c bd 4a 3e
       0.082970366 -0.1357241 0.013410585 0.19798774
000020 06 e2 96 3d e7 74 db 3d 54 6f 3d 3d 4f 64 c2 3d
       0.07367329 0.10715657 0.04624875 0.094917886
000030 4f 44 38 be 8c b1 5a ba fc 49 91 be e0 3c b7 3d
       -0.17994808 -0.00083424966 -0.28376758 0.08947158
000040 e9 35 97 3d 8e 7c a5 3d 78 2a 7d 3d bd 67 82 3e
       0.073833294 0.080803975 0.06180808 0.2546977
000050 85 24 92 bc d3 1f a0 3c 11 ab 25 be d1 2f 24 bd
       -0.01783968 0.019546425 -0.16178538 -0.040084664
000060 0a ef ac be 86 5f 0c be 5f ff d0 bd e4 d1 83 bc
       -0.33776122 -0.13708314 -0.10204958 -0.016091295
000070 e9 1a 99 3d c6 a8 32 3e 21 eb 67 bd 5b 8e 57 3d
       0.07475836 0.17447194 -0.05662072 0.052625995
000080 ce 1a 5c 3e 60 45 57 3e 94 34 21 3d ab 67 72 be
       0.214946 0.21022558 0.039356783 -0.23672359
000090 8b c6 d5 3d d1 60 79 3c 36 b9 a1 3c 05 37 65 bd
       0.1043826 0.015220837 0.019741636 -0.055960674
0000a0 9b d1 b7 bc a2 5f 1e 3e ef b5 94 3c 40 c5 13 3e
       -0.022438815 0.15466169 0.018153159 0.14430714
0000b0 de 72 92 be 4d 7a 99 bd 1e e0 ab bd 31 3c 10 3d
       -0.28603262 -0.0749403 -0.08392356 0.035213653
0000c0 be 95 ab be a0 6e cc bd 70 53 51 3e c1 1d b6 be
       -0.33512682 -0.099820375 0.20441985 -0.35569575
0000d0 ee 74 1a be 7c b5 37 bd 54 97 3d bb 16 6b 1f 3e
       -0.15083668 -0.04485081 -0.002892931 0.15568194
0000e0 3a f6 83 bd 50 b1 60 bb 63 85 8e bd 0d ba 49 3e
       -0.06443448 -0.0034285374 -0.06959035 0.19699879
0000f0 32 a0 7e bd 28 9e e8 bc e3 bc 12 3e af 3d 68 3e
       -0.062164493 -0.028395727 0.14329867 0.2267978
000100 91 fc 88 be 5e 01 0a 3e e4 7d 74 bd f5 8d fb 3d
       -0.26755193 0.13477084 -0.05969037 0.122829355
000110 2b 74 38 be fc 69 1a be 62 bb 86 bd 03 a0 c9 3d
       -0.18013065 -0.15079492 -0.06578709 0.09844973
000120 1b 27 63 3b 82 4d 1d be 70 25 67 3d a4 49 1e 3d
       0.003466076 -0.15361598 0.056432188 0.038644448
000130 18 f8 66 bc 36 db 2d bd 31 87 51 3e c4 67 6b be
       -0.014097236 -0.042445384 0.20461728 -0.22988802
000140 ea f3 69 3e 11 71 04 bd ac e6 79 3d a5 e5 9e 3e
       0.22846952 -0.03233439 0.061011 0.3103458
000150 4f 4d 25 3d d1 6a 19 bd 86 3d ef 3d 89 1a e9 3d
       0.04035693 -0.037455384 0.116816565 0.11382014
000160 43 d2 65 be e8 e5 2e 3b 7b b3 1b be 78 6b a3 be
       -0.2244349 0.0026687328 -0.15205185 -0.3191793
000170 f1 fc b2 3d 33 01 25 be da 70 e6 3d b2 d2 10 be
       0.08739651 -0.16113739 0.112519935 -0.14142874
000180 9a e6 ef 3d e9 b9 8b 3d 44 0b 25 be 92 34 29 be
       0.11713906 0.06822569 -0.16117579 -0.1652396
000190 39 76 5b 3e ee 1a 8b be ff b9 84 3d 7b 81 02 3e
       0.21431817 -0.27168983 0.064807884 0.12744705
0001a0 5e b4 38 3e 98 b2 5a 3d d4 81 7c 3e 05 a8 2a bd
       0.18037555 0.053392977 0.246589 -0.041664142
0001b0 19 ff 3b bb 89 14 94 3e d8 b6 a1 39 8a 63 56 3d
       -0.0028685986 0.28921917 0.00030844542 0.05234102
0001c0 db 94 39 3e 5f d9 99 3e 99 f0 4a bd fb ac 5f 3d
       0.1812319 0.30048653 -0.049545858 0.054608326
0001d0 57 ab 8f 3d 23 b5 51 3e 32 fe c7 3e b1 40 55 3e
       0.07015102 0.20479254 0.39061123 0.20825459
0001e0 87 d6 ca 3b 78 51 72 3d 67 4c 8c 3d d1 80 f2 3d
       0.0061901244 0.059159726 0.0685051 0.11840976
0001f0 3d 8c 3b bc e7 96 89 be 7d 0c b7 be 97 a3 b3 bd
       -0.01144701 -0.26872942 -0.35751715 -0.08771437
000200 10 c0 6e 3d 37 30 05 be dd 4b 8f be 35 b1 9a 3c
       0.058288634 -0.13006674 -0.27987567 0.018883327
000210 76 30 7e 3d af 88 de 3d 26 0c 0f be 19 08 27 3b
       0.062057935 0.10865914 -0.13969478 0.0025487004
000220 1f 6c 72 be 67 d5 9c 3d 16 21 8b be b7 72 14 3a
       -0.23674057 0.07657891 -0.2717368 0.0005662846
000230 ad fe 13 3e 7d 1c 35 bb 63 ff 30 be 2d a8 96 bd
       0.1445262 -0.0027635389 -0.17284922 -0.07356296
000240 8f 30 d2 3d 59 b0 82 3d c6 96 02 be 30 2a 95 3e
       0.10263168 0.06381292 -0.12752828 0.2913375
000250 f2 38 87 be 0f d1 24 3d b5 92 a0 3c a8 77 17 3e
       -0.26410633 0.040238436 0.019601205 0.14791739
000260 5b 91 73 3e eb d9 ec bc 94 76 a6 be 53 95 9e bd
       0.23785917 -0.028912505 -0.32512343 -0.07743325
000270 2b 16 a4 3d 5a 45 45 3d 69 9b 7c bd ff c6 69 3d
       0.08012041 0.048161842 -0.06167165 0.057074543
000280 28 9c b8 bd 2f d3 3b bd e4 20 18 3c a5 db 1d 3c
       -0.090141594 -0.045855697 0.0092851855 0.009634887
000290 56 b4 92 bc b4 ab 9a 3d 12 46 f3 3c 43 c4 98 be
       -0.017908257 0.07552281 0.029696498 -0.29837236
0002a0 bb 8d 67 3e 65 39 3c 3e cc 8d 63 ba dd ad 8b 3d
       0.2261266 0.1838127 -0.0008680492 0.06820271
0002b0 42 66 a5 3d d8 58 25 3d 77 bd 15 bd f0 40 57 3c
       0.08076145 0.04036793 -0.03655764 0.013138041
0002c0 d8 8e 36 3b 7f 4c fc bd 6e af 18 3e 07 d9 43 be
       0.0027856138 -0.12319278 0.14910671 -0.19125758
0002d0 0f 06 b8 bc f0 0e 92 3d 24 28 01 3d c7 bf 19 be
       -0.022463826 0.07131755 0.03153242 -0.15014564
0002e0 c0 7b a3 bd 3e 02 64 bc 5c 7a c8 be 96 e8 41 3c
       -0.07982588 -0.01391655 -0.39155853 0.011835238
0002f0 ec 81 ba bd 79 80 72 be 17 88 3b be 39 98 14 be
       -0.09106812 -0.23681821 -0.18313633 -0.14511193
000300 3b 1b 12 be a2 0d bd b9 32 fc 2d 3e 14 44 c6 3d
       -0.142682 -0.00036059046 0.16990736 0.096809536
000310 e3 1c 3f be 14 b3 4f be 28 f6 71 3e d5 49 6a be
       -0.18663363 -0.20283157 0.23629057 -0.22879727
000320 77 d9 71 3e 82 b8 eb 3d 8e 7e 10 3e fe 4d 15 3d
       0.23618113 0.115098014 0.14110777 0.036451332
000330 cc 57 45 be 99 27 3a 3d 99 45 8b bd 3c 2d 07 be
       -0.19271773 0.04544792 -0.06800384 -0.1320085
000340 80 97 98 bd 56 f8 62 b9 43 b6 2c be 71 31 83 be
       -0.07450771 -0.00021645552 -0.16866402 -0.25623658
000350 e5 d9 ca bd 09 22 62 be 6b 36 58 3d a6 d2 8a be
       -0.09904841 -0.22083296 0.052786272 -0.27113837
000360 d2 d8 64 3d 13 ef 44 3e d8 83 19 3e bd 54 b5 bb
       0.05587084 0.19231825 0.149917 -0.005533783
000370 78 9f 8f bd fc 46 7c bd 88 8f c3 bd 90 38 de 3d
       -0.07012838 -0.061591133 -0.09548861 0.10850632
000380 1a f9 6a 3d 3b 22 42 be f9 8a 52 3e f5 21 46 3e
       0.057366468 -0.1895837 0.20560826 0.19348891
000390 e6 5f ec be d7 16 35 be 7d 6d 3b 3d 14 fc c7 bd
       -0.46166915 -0.17684494 0.045758713 -0.09764877
0003a0 fe 76 91 3e d0 d0 35 be 21 3a 8b 3c db fa 54 be
       0.28411096 -0.17755437 0.016995491 -0.20798819
0003b0 89 25 6e bd ec d0 3a bb f7 39 03 be 1a 9c 8f bc
       -0.058141265 -0.0028505875 -0.1281508 -0.01753049
0003c0 6f 5f b4 3d aa 29 bd bd fd 09 8f 3d ee a1 62 bc
       0.08807265 -0.092364624 0.06984327 -0.013832552
0003d0 36 82 c3 bd 14 56 99 bd da 1d ba bc 4d 7a a4 3d
       -0.0954632 -0.07487121 -0.022719312 0.080311395
0003e0 f9 92 ac be a2 75 62 3c 86 00 48 bd 85 87 a9 be
       -0.3370588 0.013821991 -0.048828624 -0.33111206
0003f0 e1 2d 0f 3d 8d d8 97 3d e2 63 29 3e 6a 9c 1b 3e
       0.034955863 0.07414351 0.16542009 0.15196386

four_layer_stack.2.bias f4 [128]
000000 53 32 84 bd 73 94 59 3d 75 36 d0 bd 1e aa d3 bd
       -0.06454911 0.053120088 -0.10166637 -0.10335182
000010 bd e7 17 be 2b 23 23 3e d0 26 42 be 6d 98 af 3d
       -0.14834495 0.15931384 -0.18960118 0.08573995
000020 70 5a 8e bd d5 6f 9d 3e c5 61 2c bd 21 36 c3 bc
       -0.06950843 0.30749384 -0.042085428 -0.023829522
000030 4b 84 82 bd 33 54 ec bd 1a 77 94 3c a7 1e 2b 3c
       -0.06372889 -0.11539497 0.018123198 0.01044432
000040 0a 45 80 bd 0c ea 0e bd c0 0d 8e 3d 00 9c 80 3e
       -0.06263168 -0.034891173 0.06936216 0.2511902
000050 2b e5 c3 3d ff 85 06 be 01 7f 37 3d 0a 84 72 3e
       0.09565195 -0.13137053 0.044798855 0.23683181
000060 43 2f 31 3b 63 8f b8 3d 64 68 2e be cb a4 52 3e
       0.0027036227 0.09011724 -0.1703201 0.20570676
000070 3d e5 be bd 2c 25 60 3e 08 b8 a7 3d d3 55 95 3d
       -0.093210675 0.2188918 0.08189398 0.0729176
000080 50 4d db bd fe 70 06 be e4 b8 06 3d cb ab 92 bc
       -0.107081056 -0.1312904 0.03289117 -0.017904183
000090 5c 8a 5f 3d a0 d2 48 3d 51 fd 92 3e 36 e0 63 bd
       0.05457531 0.049028993 0.2870889 -0.055633746
0000a0 55 76 2f bd 44 a8 5b 3e 21 5a b3 3c 6b 11 df bd
       -0.04283746 0.21450907 0.021893563 -0.10891994
0000b0 6e 4c 50 3d 03 13 7f 3c 45 ee 0b 3d 54 89 88 3d
       0.05085414 0.015568498 0.03416278 0.06666818
0000c0 b9 52 c4 bb 7b 57 11 bd 19 fb 75 be ad 53 12 be
       -0.0059913066 -0.03548382 -0.24021567 -0.14289732
0000d0 88 36 3b bd 0e 4f 94 be f6 48 9e 3e 1b 6a e5 3d
       -0.045706302 -0.28966564 0.3091504 0.11201879
0000e0 69 44 42 bd b1 96 2f 3e 6d b3 8f bd 5a bb 01 bd
       -0.047428522 0.17147328 -0.070166446 -0.031672813
0000f0 d9 bb 07 3e fc 83 47 be 13 3d be 3d e1 15 4e be
       0.13255252 -0.19483942 0.09288993 -0.20125534
000100 1e ec 2e bc 1b e4 8f 3d f9 a8 f8 ba 4d d7 42 3c
       -0.010676412 0.070259295 -0.0018971256 0.011892152
000110 3d ce 03 be 3d 0b 08 be e6 db c4 3c 6b 67 03 3e
       -0.12871642 -0.13285537 0.024030637 0.1283242
000120 82 8b c5 3b f3 90 81 bd 86 33 96 3d 28 c9 25 3b
       0.0060285935 -0.06326475 0.07334046 0.00252969
000130 17 42 6e bd 40 74 48 3e e6 08 c1 3d 90 10 20 3d
       -0.058168497 0.19575596 0.09425525 0.039078295
000140 09 b9 04 be f6 78 a9 3d ba ca 31 be f2 99 ca bd
       -0.1296121 0.082750246 -0.1736249 -0.09892644
000150 71 48 47 3e fb 5b 9d bd 8e 99 f5 bd eb 0b d2 3d
       0.19461228 -0.076835595 -0.11992179 0.102561794
000160 f7 f2 07 be 99 e5 bc bd 02 eb d6 bd 77 78 04 3e
       -0.13276277 -0.0922348 -0.10494043 0.12936579
000170 78 11 2d 3e 2d 28 48 3e ae 22 db bd 79 d1 80 bb
       0.16901195 0.19546576 -0.10699974 -0.003931221
000180 1c 15 92 3d 6c af 86 3e ce 3c 0b bd 3f da 9b bd
       0.071329325 0.2630571 -0.033993535 -0.076099865
000190 34 52 1b 3d c6 1b d7 3d 0d 9b ad bd 11 6a 3e 3d
       0.037920192 0.10503344 -0.08476839 0.04648787
0001a0 68 87 d0 3d bb 28 10 3d 23 1c 38 3e 99 85 25 be
       0.10182077 0.035195094 0.17979483 -0.16164245
0001b0 0b b2 95 bb 33 3c 5e be 81 9f c3 bd 36 64 ba bd
       -0.0045683435 -0.21702652 -0.09551907 -0.09101145
0001c0 da fb 09 3e d5 de 83 3e c9 0a b7 3d e5 53 bb 3d
       0.1347498 0.25755945 0.08937604 0.09146861
0001d0 d0 58 52 3e 1f 9a 08 3d db 9d a9 bc ab dd 22 3e
       0.20541692 0.033350106 -0.020705154 0.15904872
0001e0 e3 12 c1 bc bd db 80 bd 60 39 d6 bd 8e 1c ae bd
       -0.023568576 -0.06291912 -0.10460162 -0.0850154
0001f0 44 37 b8 be cd b2 be 3d 39 e7 0b 3d 65 e6 19 be
       -0.35979664 0.09311447 0.034156058 -0.15029295

four_layer_stack.4.weight f4 [64, 128]
000000 0d 04 0d 3e 35 20 59 be f2 fe 2d 3e 09 40 87 3d
       0.13771077 -0.21203692 0.16991785 0.066040106
000010 11 79 18 3d e3 ce 25 be 46 8c f8 3d eb e2 55 be
       0.037224833 -0.16192202 0.1213613 -0.20887344
000020 c9 d2 59 3d d6 d6 88 3d 44 85 77 3e 35 ce ea bd
       0.053179536 0.06681602 0.2417193 -0.11465112
000030 94 9f fb 3d 00 46 55 3e 7e ea 3b 3c 60 19 cb bd
       0.122862965 0.20827484 0.0114694815 -0.09916949
000040 ff 36 c1 3c 3a 11 92 3d 99 26 8b 3d 16 02 72 3c
       0.023585794 0.07132192 0.06794471 0.014771005
000050 4a ef 33 bd f8 19 78 3e 5a f3 78 be f4 fc 28 bc
       -0.043929376 0.24228656 -0.24311581 -0.010314215
000060 03 77 c7 bd 09 8a 3d be 0a 35 aa bd 44 a9 f9 3d
       -0.097394966 -0.18509687 -0.08310898 0.12190488
000070 3c 8a 2c 3e 30 bf 0d 3e 5c 1a fa 3d 77 f2 38 be
       0.16849607 0.13842463 0.12212059 -0.18061243
000080 1e fc 7a 3e 5e af 14 3d 1b 6d 1b 3a 71 f4 8c be
       0.24510238 0.036300056 0.0005929039 -0.27530244
000090 9d 1c 87 bc c0 2b 62 3b 02 07 7c bd 62 2f 21 3e
       -0.016493136 0.003451094 -0.06153012 0.15740731
0000a0 ef 1f 52 be 11 73 ff 3d 54 c8 62 be cc 6b ea 3d
       -0.20519994 0.12473119 -0.22146732 0.11446342
0000b0 b4 b2 32 3d 0a d9 78 3c 30 89 6b be dc d4 48 be
       0.043627456 0.015188465 -0.23001552 -0.1961245
0000c0 89 6e c0 bd 6e 41 5c 3e 1b ab d6 3c 92 02 07 3d
       -0.09396083 0.21509334 0.026204636 0.032961436
0000d0 80 e3 c6 3c b7 8b 2f 3e fc 9b a0 be 17 4a 73 bd
       0.024278402 0.1714314 -0.31369007 -0.05939683
0000e0 ee 3a ab 3d 77 92 56 be 11 df 3a 3e 82 b6 98 3e
       0.08360849 -0.2095431 0.18249156 0.29826742
0000f0 9f 30 02 bd dc 4d c9 bd 77 f9 1f bc 40 90 73 3b
       -0.03178465 -0.098293036 -0.009764067 0.0037164837
000100 13 ae fe 3d de 73 a9 bd 91 d4 78 3c f6 9e 57 be
       0.12435546 -0.08274053 0.0151873985 -0.21056733
000110 48 20 41 3c cf 12 95 3e d1 0a 85 be d9 df 4a 3e
       0.011787482 0.29115912 -0.25984815 0.19811954
000120 27 05 61 3c 5f 46 51 be 16 d0 0e be 87 62 8f 3d
       0.013734139 -0.20437 -0.13946566 0.070012145
000130 ea 69 30 3e 5f 1e 49 bd bd 6a dc 3c 2b 60 34 3e
       0.17227903 -0.04910123 0.026906366 0.1761481
000140 3c ce a2 3c 95 4e 1a bd b0 01 00 bd d2 1b a0 bd
       0.01987373 -0.037672598 -0.03125161 -0.07817806
000150 da 73 25 bc c7 54 83 bd cc 4f 0f 3e 35 16 3b bd
       -0.010098422 -0.06412654 0.13995284 -0.045675475
000160 38 45 ad bd c8 0a f5 bd ef 60 ac bd 98 97 3d 3b
       -0.08460468 -0.11964947 -0.08416926 0.0028929468
000170 27 27 a2 3d ef 6b 6c be f8 73 b2 bd e8 2f 59 be
       0.07917624 -0.23088048 -0.087135255 -0.21209681
000180 78 34 04 be e4 20 4f be 77 ad 69 bc 33 20 2c 3e
       -0.1291064 -0.2022739 -0.014262549 0.16809158
000190 cc 14 83 bc 70 82 c0 bd cc b9 46 3d 7c 0a f6 3d
       -0.016001128 -0.09399879 0.048517033 0.120137185
0001a0 9b 0e ae be 0a c1 8b bd 1b 52 5d 3c 8b 81 ca 3d
       -0.33995518 -0.06823929 0.013508345 0.098879896
0001b0 01 b4 b9 3c be ad 12 be 7e aa 23 be c1 9e 8d 3d
       0.02266884 -0.1432409 -0.15983006 0.069150455
0001c0 ec bc d5 3d c3 fb c4 bd 7c 55 be be c8 49 65 bd
       0.104364246 -0.09618332 -0.37174594 -0.055978566
0001d0 a9 08 4e 3d 54 99 9f 3d 58 44 0f 3e a9 71 bf bd
       0.050301228 0.07792917 0.13990915 -0.09347851
0001e0 c2 7a 4e bc 2b f7 11 be 3e fe d9 3d 69 dc a5 be
       -0.01260251 -0.14254443 0.10644196 -0.32394722
0001f0 c8 a6 2c 3e a7 5b 1c 3d 56 24 98 be 90 b7 19 be
       0.16860497 0.038173344 -0.29715222 -0.1501143
000200 03 80 13 be c2 9d b3 3d 42 e6 61 3e 22 04 8c 3d
       -0.14404301 0.08770324 0.22060493 0.06836726
000210 f4 f0 54 be 2b ea 95 bc 25 d1 30 3d 68 ee 69 3e
       -0.20795041 -0.018300137 0.043168206 0.22844851
000220 3b b4 bd 3d 8d 8e 30 bd 37 42 81 be 94 80 df bd
       0.09262892 -0.043104697 -0.2524583 -0.10913196
000230 ba ea ce 3d 97 76 69 3e d7 d4 5b bd eb b1 46 bc
       0.10103364 0.22799145 -0.053669777 -0.01212738
000240 16 9d 04 3d 8a 84 ba bc 1d d2 42 be 13 20 ef bd
       0.03237637 -0.022768278 -0.19025464 -0.116760395
000250 63 26 0e 3d 9e fe 26 3e 30 13 00 bd 37 e3 fc bd
       0.034704577 0.16308066 -0.0312683 -0.12348025
000260 7a f2 bf bd 2d e4 59 3d 8d 8e 82 bd 61 c3 3c bc
       -0.093724206 0.05319612 -0.06374846 -0.011521191
000270 df 3a a5 3d dd 13 6d 3d af 1f 93 3d 4c 46 78 be
       0.080678694 0.05788027 0.071837775 -0.24245566
000280 d5 ab f7 3d 8d 89 0c bd 2a 1d ba 3d 7d 92 cb bc
       0.12093321 -0.034310866 0.09087594 -0.024850124
000290 bf 69 2e be 08 00 61 bd 27 24 f5 bc a7 ee 90 3e
       -0.17032526 -0.05493167 -0.029924465 0.28307077
0002a0 51 2d 44 be 99 2f 52 3d 8a 70 48 3d 41 fe 49 3d
       -0.19157912 0.051314924 0.04893545 0.04931474
0002b0 26 23 30 bd e8 bb 09 bd f7 27 88 3d 74 8f 0c be
       -0.04300227 -0.033626467 0.06648248 -0.13726598
0002c0 39 d1 a8 bc 39 f8 94 3c 10 9b 7d 3e b2 e4 56 3e
       -0.020607578 0.018184768 0.24766183 0.20985678
0002d0 d2 c5 63 3d 7f c3 39 3e 5d 41 2d be a5 98 cb 3c
       0.055608578 0.18140982 -0.16919465 0.02485306
0002e0 f5 ef 6c bd 62 6f 16 be b9 b4 35 be c5 c9 8a 3d
       -0.05784603 -0.14690927 -0.17744721 0.06776766
0002f0 37 5c f9 3c e6 6e 7d be 1f 30 29 3e fb 1b 77 3d
       0.03043948 -0.24749336 0.16522263 0.06032942
000300 8d d7 27 3d 76 a4 4a be 88 72 88 bd 49 ec 4e be
       0.04097705 -0.197893 -0.0666247 -0.20207323
000310 06 96 5a be 31 f9 80 3d 11 6d ad bd ac 7b 95 3d
       -0.21346292 0.062975295 -0.084680684 0.07298979
000320 c2 40 f5 3d fe b8 b4 bc da 6a 59 be c9 55 52 3e
       0.11975242 -0.022060867 -0.21232167 0.20540537
000330 fd 61 14 be 4e d7 b5 bd 07 d6 63 bd e9 22 ed 3d
       -0.14490505 -0.08878957 -0.055624034 0.11578924
000340 74 af 5d 3c 22 34 50 3d 38 b3 b6 3c 3b 05 8d bd
       0.013530601 0.050830968 0.022302255 -0.06885763
000350 89 bc 94 bd 07 6e d2 bb 0b 85 b0 3d a9 17 ad 3c
       -0.07262523 -0.0064218077 0.08619126 0.021129446
000360 38 fa 64 be 79 ef 54 be 6b a0 a1 3d 18 b0 7b 3b
       -0.22361076 -0.20794477 0.078919254 0.003840452
000370 b2 79 6a 3c 77 79 1a be c0 52 32 3e a6 50 c4 3c
       0.014311241 -0.15085398 0.17414379 0.023964237
000380 59 1d 9d bd 75 ab bb bc 63 1b 07 be 2c 3c 83 3e
       -0.07671613 -0.022908906 -0.13194041 0.25631845
000390 37 15 96 bd 08 4b 24 be 53 59 48 bd 80 4d ba 3d
       -0.07328265 -0.16044247 -0.04891331 0.09096813
0003a0 52 bb 7e be 1b b2 cc bd b0 94 3f 3c 8c 03 90 3c
       -0.24876145 -0.099949084 0.011693165 0.017579816
0003b0 d3 1e 39 3e f8 25 5c be 0d 5c b5 3c 21 2b 2b be
       0.18078165 -0.21498859 0.02213862 -0.16715671
0003c0 15 30 aa 3d 85 9f 0a 3e 0b ba a3 be 66 4b 33 3d
       0.08309952 0.13537414 -0.31977877 0.043773077
0003d0 60 15 08 3e 6e 30 28 bd 13 c6 ca 3d 8a b5 1e 3d
       0.13289404 -0.04106181 0.09901061 0.038747348
0003e0 c3 f1 5e 3d c2 7f 2a be 87 61 ff 3d 45 23 e9 bd
       0.05442978 -0.16650298 0.12469774 -0.1138368
0003f0 ed e3 c5 3d 5c 3d 10 3e af 31 41 be d9 6b 3c 3d
       0.09662614 0.14085907 -0.18866609 0.04600129

four_layer_stack.4.bias f4 [64]
000000 d8 48 22 be 72 e1 88 bd bf cb cc bc 52 2f 3e 3d
       -0.158481 -0.06683625 -0.024999497 0.046431847
000010 c5 58 dc bc 5b 1c 8a bd 88 b8 14 be d5 f1 70 bd
       -0.026897797 -0.067436896 -0.14523518 -0.05882438
000020 1a 72 20 bd 08 30 57 bd df 43 2b 3e 30 27 8e 3c
       -0.039171316 -0.05253604 0.1672511 0.01735267
000030 65 d5 aa 3e 36 cb 52 3d 0d bc 8b bd c8 e5 b6 3d
       0.33365932 0.05146333 -0.06822977 0.08930546
000040 b7 db 47 3e 69 35 0b 3d 34 57 2b be 02 bd c2 3d
       0.19517408 0.033986483 -0.16732484 0.09508707
000050 73 31 d4 3c 98 09 18 3c 4d ec 5c 3d 44 5b fa 3d
       0.025902485 0.009279631 0.05393629 0.12224439
000060 23 c5 e4 3b af 16 f9 bd b2 8c 68 3e 5e 11 90 3c
       0.0069815083 -0.1216253 0.22709921 0.017586406
000070 62 73 06 3e 39 32 8b 3e 2a 17 bf 3d 7f 58 5b bc
       0.13129953 0.27186754 0.0933059 -0.013387798
000080 d9 85 0e 3e 04 08 b6 3e 7d 3b 9e 3e 9c f4 ad bd
       0.13918246 0.3555299 0.3090476 -0.08493921
000090 8f ef 49 3e 8b 25 69 3e 33 75 54 3e 89 37 4f bc
       0.1972029 0.22768228 0.20747833 -0.012647518
0000a0 a0 9f 88 bd 6a 68 8a bc 35 5c 82 3e 30 9b 29 be
       -0.06671071 -0.016895492 0.25460973 -0.16563106
0000b0 72 f6 3c 3c 65 c7 99 3e 04 73 31 3d 04 60 2d 3e
       0.0115333665 0.30034938 0.043322578 0.16931158
0000c0 27 76 26 3e 43 c8 b5 3e d3 2c c7 3c 78 38 7b bd
       0.16256009 0.3550435 0.024313366 -0.06133315
0000d0 b9 67 bd bd 85 fd 3b 3e c3 68 bf 3e 82 d0 c0 bd
       -0.09248299 0.18358429 0.37384614 -0.0941477
0000e0 db 25 04 bb 70 98 19 3e b6 5d 69 3e 2e 25 d1 bd
       -0.0020164165 0.14999557 0.22789654 -0.102121696
0000f0 37 a4 7b bd ec e4 1f be 04 64 7e 3e 9c 77 b1 3e
       -0.061435904 -0.1561467 0.2484284 0.34661567

four_layer_stack.6.weight f4 [10, 64]
000000 8a bb 69 3c 6a 22 b7 be 7f 4e 5c be bc 1d e0 3d
       0.014265904 -0.35768443 -0.21514319 0.109431714
000010 f0 9a 34 be 08 44 4c be d1 56 7f 3e 19 06 5b 3d
       -0.17637229 -0.19947827 0.24935462 0.053472612
000020 7d e4 bf bb bc 84 96 3d 40 09 45 be ae 3b 14 3e
       -0.0058560953 0.07349536 -0.1924181 0.14475891
000030 d3 dd 82 be 58 f8 3c 3d 4c ea be be 98 62 bc 3d
       -0.25559863 0.046135277 -0.3728813 0.09198493
000040 81 6a ec 3c 17 9b ae bd c7 0e 91 be c2 e1 87 bd
       0.028859379 -0.08525675 -0.28331587 -0.06634857
000050 72 9d 8a bc 4c d6 b1 bd cd 0f 8d bc a9 3f 02 be
       -0.016920779 -0.08683452 -0.017219448 -0.12719597
000060 3c 36 20 3e 83 2f 0b be c9 3a 87 be e0 f1 e4 3d
       0.15645689 -0.13592343 -0.26412037 0.111789465
000070 f7 86 3a 3d 9c 76 f7 3d 48 5b 0f 3e 58 32 50 3e
       0.04553887 0.1208317 0.13999665 0.20331705
000080 8f 6c a7 3d c4 7a e0 bc 53 59 84 3d bb c5 ad bb
       0.08175003 -0.02740229 0.0646235 -0.0053031123
000090 27 7b ee bc d0 88 a8 3d 47 73 16 be 7a 70 2f 3e
       -0.029111458 0.0822922 -0.14692412 0.1713275
0000a0 eb 8f bf 3d 07 7f c4 be 57 ef 82 be e8 1e 83 3d
       0.09353622 -0.38378164 -0.25573227 0.06402379
0000b0 99 38 a6 3d b4 b3 86 3d 23 cd 44 be 13 97 73 bd
       0.08116264 0.065772444 -0.19218878 -0.059470247
0000c0 02 9d ee 3d 22 94 43 be 90 64 51 bd 96 9d 81 bd
       0.116510406 -0.19099477 -0.051121294 -0.06328885
0000d0 da 75 e9 bd 88 3b 51 be 8f 58 1d 3e 79 07 1c 3e
       -0.113994315 -0.20432866 0.15365814 0.15237226
0000e0 f6 37 d9 bd 75 cf 84 bd 52 bb 4f be 5a c7 e8 3d
       -0.10606377 -0.06484882 -0.20286301 0.11366148
0000f0 da a9 1a 3e b8 07 70 3d bb d4 81 be 2f a3 fc bd
       0.15103856 0.05860111 -0.25357613 -0.12335812
000100 42 b7 28 be a3 be c6 3c b6 73 77 3d 91 eb 7d 3e
       -0.16476157 0.024260825 0.060413085 0.24796893
000110 19 0f 88 bd af ef 50 3e ce 24 1a 3e c0 3c 07 be
       -0.06643505 0.20403932 0.15053102 -0.13206768
000120 16 7a b7 be 22 65 d6 bd 81 d9 6f be 37 ff 9e be
       -0.35835332 -0.10468508 -0.23422815 -0.31054088
000130 a5 2a 70 be f3 ae 52 3e 9a 63 3e 3d de a7 eb be
       -0.23453768 0.2057455 0.046481706 -0.4602651
000140 1e 14 09 be 74 8d 6f be 2f c1 8d 3d 54 69 30 3e
       -0.1338658 -0.23393804 0.069216125 0.1722768
000150 6f 2f df 3d 6e f5 ba 3b 06 68 6c bc 7e 06 e8 be
       0.10897719 0.005705527 -0.014429098 -0.45317453
000160 e4 f2 a0 bd d3 ab f5 3d 34 d0 27 3e 85 25 61 bd
       -0.07858828 0.119956635 0.16388017 -0.054967422
000170 94 95 32 be 02 35 75 be 2a 90 30 be 95 b5 62 3e
       -0.17439872 -0.23946002 -0.17242494 0.2213958
000180 67 5b 8b be 75 a5 4f be b0 73 ac 3d ac 25 4a 3d
       -0.27218172 -0.2027796 0.08420503 0.049352333
000190 a7 f0 23 be 4c 8e 34 3e 29 79 5e be 79 d6 bc bd
       -0.1600977 0.17632407 -0.21725906 -0.09220595
0001a0 be 15 bc bd c6 c2 5a 3e 95 cb 33 3d da af cc bd
       -0.091838345 0.21363363 0.043895323 -0.099944785
0001b0 0e 7a c2 bd f3 d0 7d bd 94 fe 24 be 1c d2 8c be
       -0.09495936 -0.061966848 -0.16112739 -0.2750405
0001c0 e6 db c8 3d 6b fe b3 bd 7d 5e e6 3d 7c 15 29 3e
       0.09807567 -0.08788761 0.11248491 0.16512102
0001d0 90 0f 89 3d 48 d5 7d 3e c3 62 cf be a7 09 7b be
       0.066924214 0.24788392 -0.40505037 -0.24515401
0001e0 6e a4 5e be aa 09 24 bd 46 64 ff bd e3 e9 37 be
       -0.21742412 -0.04004828 -0.124702975 -0.17960314
0001f0 0b e1 6f bd d7 66 06 3e ce c2 29 3e 08 ec 53 be
       -0.058564227 0.13125168 0.16578218 -0.20695508
000200 b0 67 dc bd cc 4a 7a 3d e7 5a 39 3d ae 28 91 be
       -0.10761964 0.061106488 0.045252707 -0.2835135
000210 bc df fc 3c 59 a3 03 3e 2a 34 31 be 70 c1 70 3d
       0.030868404 0.12855281 -0.17305055 0.058778226
000220 49 50 5b bd 26 3f d2 3c 6c c2 a5 bc 67 06 0a be
       -0.053543363 0.025664877 -0.02023431 -0.13479005
000230 76 0b 4f be b0 25 50 3d 78 fe a8 3d 0e 3c 5d 3c
       -0.20219216 0.05081719 0.08251661 0.013503088
000240 ef 6c 69 bd dd 43 02 3e 88 2d fd bd 01 10 0a 3e
       -0.056988653 0.127212 -0.123622 0.13482668
000250 c9 cb 00 3e 94 12 65 be ee 76 eb bc 9e 18 29 3e
       0.12577738 -0.22370368 -0.028743234 0.16513297
000260 a3 de a2 3c b1 f2 d5 3d 0d 4b 56 be 57 27 10 bd
       0.019881552 0.1044668 -0.20927067 -0.035193767
000270 b5 bb 32 be b4 30 48 be e5 44 78 3e 6d 8f 9e be
       -0.17454417 -0.19549829 0.24245031 -0.309688
000280 18 24 fb 3d cb 0e 11 be d4 6e ed 3c ef e6 6a be
       0.12262744 -0.141658 0.028983511 -0.22939657
000290 c2 5d 91 3d 11 58 9b bc 11 8d 15 be 3c 6c bb 3b
       0.07097961 -0.018962892 -0.14604594 0.0057196897
0002a0 c8 e1 14 be b3 67 d6 3c b4 76 b4 3d db 53 3f 3d
       -0.14539254 0.026172495 0.08811703 0.04671083
0002b0 44 c5 e5 bd 02 fc d1 be ce f0 51 3e 23 4f 4e bd
       -0.11219266 -0.4101258 0.20502016 -0.05036844
0002c0 0f e4 03 3e 27 81 32 be 08 4b a3 3d 6f 8e 38 3d
       0.12879966 -0.1743208 0.079732955 0.04505771
0002d0 d9 d6 03 be fa ea 28 be 22 83 e7 3d 42 87 87 3d
       -0.12874927 -0.16495886 0.113043085 0.06617595
0002e0 c8 96 08 bd 3a 1f 02 be 10 bc a1 bb 60 8c 2d 3e
       -0.03334692 -0.12707224 -0.004935749 0.1694808
0002f0 e0 2c e5 3d b4 db 70 bd 77 81 61 bd 7c 11 2d be
       0.111902 -0.058803275 -0.055055108 -0.16901201
000300 c3 74 14 3e 11 f4 68 3e a7 ff 69 3d 12 f5 3a be
       0.14497666 0.22749354 0.057128575 -0.1825755
000310 75 e1 9f be 1d 5d 82 be 6e b4 09 be c9 cd 93 bd
       -0.31226698 -0.25461665 -0.13447735 -0.07216985
000320 ec d0 af be f5 ae 34 be e0 89 6d 3e 0c 29 47 3e
       -0.34339082 -0.17644866 0.23197126 0.19449252
000330 8a d4 ea bd ff f4 ab 3d a5 dd 42 3c 56 f2 ce 3d
       -0.1146632 0.08396339 0.0118936645 0.10104816
000340 23 26 05 3e e7 58 91 3c a9 ce 53 3d 16 d3 48 3e
       0.13002829 0.017742587 0.05171076 0.19611773
000350 e8 3f 5e be 4e ce d7 3d 6d fb 22 3d 13 97 e5 bd
       -0.21704066 0.10537396 0.03979056 -0.11210456
000360 95 79 8d be 78 65 17 bd bf 90 52 bd 20 42 fc 3d
       -0.27631822 -0.036962003 -0.051407572 0.123173
000370 8a 3c f1 3d f4 a5 25 3e ab 8f a8 bc 52 96 91 be
       0.11779125 0.16176587 -0.020576319 -0.28434998
000380 cc 56 11 bd b2 f2 38 3e 2d 40 08 be 43 d6 03 3d
       -0.035483167 0.18061331 -0.13305731 0.032186758
000390 74 f3 07 3e d1 8d 9c b9 0a f4 2d 3d d2 fb 94 be
       0.13276464 -0.000298603 0.042469062 -0.29098374
0003a0 36 5c 02 3e b7 3b 80 be 0d 7d 71 3c 07 dc 55 3d
       0.12730488 -0.2504556 0.014739287 0.052211788
0003b0 1e 56 6d 3c 82 25 13 be 1a 94 c9 3d 76 0e 9d be
       0.014485864 -0.14369777 0.09842701 -0.30675095
0003c0 6b 99 63 bb a7 51 db 3c aa 17 40 be f2 3a 02 be
       -0.0034728895 0.026772333 -0.18759027 -0.12717798
0003d0 89 4b 37 be d2 b5 5b 3d f6 08 01 bd d9 cb 41 be
       -0.17899908 0.053640194 -0.031502686 -0.18925418
0003e0 a4 3d ac bd 77 f9 87 bd 4b dc 7c be 9d 01 22 3e
       -0.084101945 -0.066393785 -0.2469341 0.15820928
0003f0 82 d2 25 be 72 b6 ac bd bc f1 18 be 5e af 27 be
       -0.16193584 -0.08433236 -0.14935964 -0.16375491

four_layer_stack.6.bias f4 [10]
000000 7a e0 0b be a1 9a 66 be 74 1d 47 bd 03 e8 c4 bd
       -0.1365985 -0.22519924 -0.048612073 -0.09614565
000010 71 37 df bd 9a 24 d6 3d 5a c2 96 be f0 c2 51 bd
       -0.108992465 0.104562 -0.29445153 -0.051211298
000020 fc a2 9b 3e f6 80 54 3d
       0.30397785 0.0518808
