Exercises/4- simple CNN for Classification/cnn-for-MNIST.pth (torch, 16716 bytes, 10 tensors)

block_1.0.weight f4 [5, 1, 3, 3]
-0.12714349 0.3217298 -0.22348358 -0.1667042 0.11480003 -0.17078148 0.095090605 -0.2581347
0.058336027 0.36366346 0.49078962 0.1073699 0.5214094 0.3147021 0.21139498 0.21445335
-0.3003916 0.036787212 -0.20817895 -0.07917765 -0.22394294 0.05281051 -0.12904614 -0.18437676
0.07395255 -0.1437005 -0.25132483 -0.39925513 -0.26028225 0.23615472 0.25274703 0.36887258
0.30952653 0.19774808 0.5373279 0.63672477 -0.11891133 0.08454826 0.07582745 -0.153848
-0.28828037 0.061815802 0.31788447 0.19087388 -0.16526987
00000000: e731 02be c5b9 a43e e1d8 64be 81b4 2abe
00000010: 471c eb3d 57e1 2ebe ddbe c23d 3b2a 84be
00000020: c2f1 6e3d 1932 ba3e c748 fb3e c0e4 db3d
00000030: 167b 053f a220 a13e ed77 583e a999 5b3e
00000040: eecc 99be 30ae 163d dd2c 55be e427 a2bd
00000050: 4c51 65be d54f 583d ac24 04be 43cd 3cbe
00000060: 6f74 973d 3926 13be a6ad 80be 2b6b ccbe
00000070: b743 85be 8bd2 713e 0f68 813e dedc bc3e
00000080: 437a 9e3e 797e 4a3e 528e 093f 6500 233f
00000090: c987 f3bd a327 ad3d 6c4b 9b3d 558a 1dbe
000000a0: 7c99 93be 9132 7d3d c1c1 a23e 7174 433e
000000b0: 813c 29be

block_1.0.bias f4 [5]
-0.1446847 0.06453413 0.4200314 0.31608364 -0.084337436
00000000: 3a28 14be 782a 843d 5b0e d73e b7d5 a13e
00000010: 1bb9 acbd

block_1.2.weight f4 [5, 5, 3, 3]
0.117681205 -0.11316675 -0.05946483 0.05671749 0.12789257 0.115050584 -0.044999976 0.10222055
0.04064826 -0.0996894 0.101164624 0.1988112 -0.025617065 0.15095343 0.28014815 0.15687767
0.40036324 0.3014912 -0.1663281 -0.12667133 -0.22274098 -0.1278722 -0.07152923 -0.0071042967
-0.22316931 -0.029528692 -0.105829485 0.32101038 0.4590834 0.3899807 0.3558565 0.37235624
0.09627244 -0.08896869 -0.25034752 -0.38367882 -0.011069908 -0.0068753045 -0.07482464 -0.13000704
0.09989288 -0.058654763 -0.0990307 0.08752165 0.023877604 0.13622504 0.105358094 0.065812856
0.081725806 -0.0888879 0.1275909 -0.019455867 -0.08531768 -0.040114425 -0.06401109 0.20816202
0.23550457 0.20557964 0.10003139 0.042771082 0.09839602 -0.034152884 -0.01506416 0.025749937
-0.07866094 -0.18354964 0.052798133 0.06916648 -0.13565494 0.07688772 -0.071430795 -0.055682357
0.19966018 -0.0201876 0.10001735 -0.12054297 -0.14782643 -0.08267618 0.0044031297 0.018020477
-0.071690425 0.12459048 0.06326503 -0.008293107 0.044435076 -0.13504013 0.0027996972 -0.06377969
0.12201472 0.015461479 0.048398193 -0.06228392 -0.04809206 -0.055383213 -0.059935663 -0.025610732
0.032209843 0.097947404 0.07197631 0.101192124 0.1680423 0.040696733 -0.02839242 -0.12861282
-0.017528456 -0.040641073 0.014015905 -0.080043785 -0.10622786 0.10569049 0.028111449 0.084594004
0.015793512 0.10532496 -0.0046323636 -0.099435374 -0.021170404 0.09367195 -0.0138491215 -0.14045791
-0.12911044 0.059838347 -0.115833804 0.011526647 -0.05549852 0.06688822 -0.1489824 -0.098215826
0.05892426 -0.01855485 0.01732587 -0.06689975 -0.018749699 -0.056080185 -0.025074 -0.029106047
0.052223027 0.00023815036 0.088357635 -0.12052633 0.0704267 -0.028597543 0.043036148 0.0035861433
-0.053424828 0.07447637 -0.1416173 -0.13401973 0.018031204 -0.05430908 0.009420728 -0.09791008
-0.079396255 -0.0012438014 0.048854943 0.11548628 -0.10507602 -0.12264096 -0.09075206 -0.022683317
0.014712293 0.102444895 -0.12920767 -0.097261764 -0.08438677 -0.028199587 -0.05457789 0.04659028
-0.11984623 -0.14226982 0.052265942 0.03419423 -0.110791184 -0.07706289 -0.06342991 0.08760817
0.13935147 -0.13351516 0.005489096 -0.022544608 0.106212415 0.04584603 0.12642834 0.08294206
0.04408288 -0.08794149 -0.08269893 0.05334965 -0.06631081 -0.14202012 -0.16634908 -0.009346334
0.042822804 -0.056215867 -0.04920485 0.24188863 0.21764192 0.10005415 0.016897503 -0.11400074
-0.09018085 0.017484888 -0.14060865 -0.21422471 0.020081595 -0.020174114 -0.105932616 0.015637415
-0.050402023 0.21752667 0.23634984 0.17397857 0.11417149 0.091728926 0.2810553 0.18616702
0.027483953 0.027268821 0.14323081 0.0069039343 0.12714276 0.13439307 -0.005864356 -0.12742068
0.09717788
00000000: d802 f13d f8c3 e7bd 6591 73bd 9950 683d
00000010: 45f6 023e a49f eb3d e551 38bd 0259 d13d
00000020: ca7e 263d f529 ccbd 662f cf3d 2a95 4b3e
00000030: e1da d1bc 8993 1a3e 946f 8f3e 8aa4 203e
00000040: 69fc cc3e 0e5d 9a3e ea51 2abe 21b6 01be
00000050: 3616 64be eef0 02be eb7d 92bd 29cb e8bb
00000060: 7f86 64be 28e6 f1bc 21bd d8bd 795b a43e
00000070: fb0c eb3e 8dab c73e d332 b63e 7aa5 be3e
00000080: 7c2a c53d 3735 b6bd 8d2d 80be 8d71 c4be
00000090: 8f5e 35bc 3c4a e1bb a93d 99bd 9120 05be
000000a0: a394 cc3d fa3f 70bd 9cd0 cabd 8d3e b33d
000000b0: f79a c33c 947e 0b3e fcc5 d73d e4c8 863d
000000c0: dc5f a73d dc0a b6bd 30a7 023e e961 9fbc
000000d0: 09bb aebd 064f 24bd 3f18 83bd 6d28 553e
000000e0: 1c28 713e 7883 523e 42dd cc3d bb30 2f3d
000000f0: da83 c93d e5e3 0bbd abcf 76bc 88f1 d23c
00000100: fd18 a1bd 70f4 3bbe db42 583d 28a7 8d3d
00000110: 21e9 0abe 4f77 9d3d 4f4a 92bd 2f13 64bd
00000120: b873 4c3e 7760 a5bc e5d5 cc3d 3cdf f6bd
00000130: d05f 17be 2152 a9bd 2148 903b ae9f 933c
00000140: 6ed2 92bd 4b29 ff3d 1991 813d d0df 07bc
00000150: 8e01 363d f647 0abe 207b 373b ed9e 82bd
00000160: dbe2 f93d 2552 7d3c 2f3d 463d 6c1d 7fbd
00000170: 2efc 44bd 82d9 62bd 197f 75bd 99cd d1bc
00000180: 78ee 033d a698 c83d 5168 933d d13d cf3d
00000190: 4813 2c3e 9eb1 263d 3897 e8bc 14b3 03be
000001a0: d697 8fbc 4177 26bd f7a2 653c ffed a3bd
000001b0: fe8d d9bd 4174 d83d fb49 e63c 9f3f ad3d
000001c0: 6561 813c 9db4 d73d 15cb 97bb c6a4 cbbd
000001d0: 8e6d adbc 14d7 bf3d 6de7 62bc 33d4 0fbe
000001e0: 8735 04be 0e19 753d 463a edbd 43da 3c3c
000001f0: 6b52 63bd b1fc 883d d88e 18be 6125 c9bd
00000200: 915a 713d 5700 98bc fcee 8d3c bc02 89bd
00000210: f898 99bc 56b4 65bd fd67 cdbc ce6f eebc
00000220: d0e7 553d 00b8 7939 d9f4 b43d 82d6 f6bd
00000230: e03b 903d 6545 eabc ac46 303d 8005 6b3b
00000240: fed3 5abd 1187 983d 2004 11be 783c 09be
00000250: 2db6 933c 3373 5ebd 6659 1a3c 1485 c8bd
00000260: 819a a2bd 0d07 a3ba 1f1c 483d 1284 ec3d
00000270: 1932 d7bd 2f2b fbbd 37dc b9bd 5dd2 b9bc
00000280: d40b 713c a1ce d13d 044f 04be 2d31 c7bd
00000290: f9d2 acbd d202 e7bc 118d 5fbd 73d5 3e3d
000002a0: f171 f5bd 2eaf 11be d014 563d 400f 0c3d
000002b0: 7de6 e2bd 26d3 9dbd 8ae7 81bd ea6b b33d
000002c0: 27b2 0e3e 33b8 08be e0dd b33b 78af b8bc
000002d0: e585 d93d 0cc9 3b3d 6e76 013e 87dd a93d
000002e0: 4090 343d ab1a b4bd 0e5e a9bd 2a85 5a3d
000002f0: f6cd 87bd b96d 11be 6a57 2abe 5e21 19bc
00000300: f766 2f3d 9c42 66bd 068b 49bd a7b1 773e
00000310: 86dd 5e3e 31e9 cc3d a26c 8a3c 3879 e9bd
00000320: bdb0 b8bd 783c 8f3c b7fb 0fbe b95d 5bbe
00000330: 2882 a43c 2f44 a5bc 33f3 d8bd 091a 803c
00000340: 5a72 4ebd 50bf 5e3e b105 723e 7027 323e
00000350: bed2 e93d 60dc bb3d 7be6 8f3e 91a2 3e3e
00000360: 0726 e13c dd62 df3c 19ab 123e 663a e23b
00000370: b631 023e 569e 093e c929 c0bb 917a 02be
00000380: 3205 c73d

block_1.2.bias f4 [5]
0.19570678 0.054429244 0.0082948245 -0.029547695 0.03696726
00000000: 5c67 483e 33f1 5e3d 04e7 073c 020e f2bc
00000010: fb6a 173d

block_2.0.weight f4 [5, 5, 3, 3]
0.10005002 0.21591577 0.06433585 -0.35985595 -0.08687428 -0.49347782 -0.19238558 -0.23199764
0.04851476 0.20269047 0.12965542 0.02800539 -0.08253447 -0.050105304 0.055188216 -0.0828414
-0.15246119 -0.030436754 0.1296528 0.11192956 -0.055532053 0.12759417 0.089650474 0.16855541
-0.09942745 0.13985619 0.12726313 -0.01892538 0.08475751 0.026992958 -0.1290047 0.018727783
0.06785973 -0.053478546 0.11181343 -0.12771143 -0.03708033 -0.16802655 -0.13383237 -0.20680468
-0.03827582 0.009590753 0.1578569 0.0739655 0.32244375 0.25252157 0.4724436 0.4048167
0.36209828 0.30366725 -0.088854924 -0.14651245 -0.29471052 -0.20675656 -0.12159773 0.23100987
0.23618081 0.050056193 0.16096939 0.13668509 0.036613204 0.04870758 -0.025311805 -0.040489595
-0.10833793 0.01714554 0.1520235 -0.11831789 0.15467662 -0.109904885 0.11020325 0.039004166
-0.015771316 0.11298588 0.039248243 -0.012763143 -0.055102468 0.024235968 -0.035412688 -0.14893764
-0.08905423 0.08205564 0.21199335 -0.022177815 -0.047830366 0.07986636 -0.014136486 -0.27703157
-0.09536495 -0.06799651 -0.013803149 0.030665172 -0.025126088 -0.06308375 0.039525304 0.10907033
0.027028563 -0.07607318 -0.1121008 0.115870856 0.011901547 -0.036482953 0.053988326 -0.10150173
0.018503642 -0.015135025 0.11123582 0.023375088 0.11432657 0.06639945 -0.03949316 -0.056627873
0.13965063 -0.07894877 -0.005506634 -0.14671008 -0.13957764 0.14864309 0.06247568 0.035040677
0.05336398 -0.008296162 -0.10190265 -0.05809883 -0.09579703 0.07480994 -0.0028787088 -0.023691185
-0.029793022 -0.07487899 -0.10787683 -0.028764486 -0.0059391465 -0.12309965 -0.11973589 0.1395062
-0.03247141 0.030312039 0.05471707 0.012793533 -0.26296586 0.15664318 -0.08633528 -0.10501579
-0.0004644624 -0.10669502 -0.017323168 -0.052644704 0.0034810805 -0.118686 -0.06193024 0.015622049
-0.12605055 0.08823361 0.019272765 0.12726173 -0.12213918 -0.08262137 0.046196934 -0.016230319
0.028531985 0.11507986 -0.08582822 -0.047661178 0.12540226 -0.14717932 0.134412 0.14647165
0.13521202 0.0043365876 -0.01686609 -0.07054899 -0.008271172 -0.024004335 -0.13468239 -0.013862374
-0.11461234 0.06479191 0.22415227 0.2776597 0.015589652 0.24991903 0.32221013 -0.07192985
0.057204388 -0.13413258 -0.1881686 -0.062422626 -0.14800067 -0.025487043 0.04382396 -0.021457829
-0.022915136 -0.06750251 0.016936576 -0.0039363084 0.076385334 -0.019298155 0.08561718 -0.014106413
0.044593997 -0.087944865 -0.08410662 0.07676524 -0.13530645 0.09067506 -0.043418013 0.07568619
-0.09069166 0.14665784 -0.015534818 -0.030976132 -0.10316993 -0.0042252094 -0.054217435 0.05870086
-0.08681631 0.053710133 0.15474106 0.010558179 0.05489881 0.10336874 -0.11521748 0.071545444
0.08951445
00000000: 06e7 cc3d 0619 5d3e 84c2 833d 0a3f b8be
00000010: 24eb b1bd 20a9 fcbe ba00 45be ca90 6dbe
00000020: 6ab7 463d 178e 4f3e 64c4 043e 8f6b e53c
00000030: d507 a9bd 383b 4dbd 0a0d 623d c0a8 a9bd
00000040: c91e 1cbe 8056 f9bc b4c3 043e 533b e53d
00000050: 9475 63bd 0ca8 023e ab9a b73d ca99 2c3e
00000060: 9ea0 cbbd 7636 0f3e 4451 023e 6609 9bbc
00000070: 5895 ad3d 5620 dd3c cf19 04be 026b 993c
00000080: 0bfa 8a3d 520c 5bbd 71fe e43d c9c6 02be
00000090: 8be1 17bd 270f 2cbe 5a0b 09be 9bc4 53be
000000a0: 1bc7 1cbd 8922 1d3c 3da5 213e 397b 973d
000000b0: 5917 a53e 824a 813e 21e4 f13e 2244 cf3e
000000c0: f264 b93e 467a 9b3e 92f9 b5bd 5c07 16be
000000d0: 4ce4 96be feb7 53be 3b08 f9bd da8d 6c3e
000000e0: 62d9 713e b907 4d3d 29d5 243e 2df7 0b3e
000000f0: baf7 153d 9981 473d b45a cfbc 6bd8 25bd
00000100: 47e0 ddbd ce74 8c3c 0cac 1b3e a650 f2bd
00000110: 8c63 1e3e d015 e1bd 3eb2 e13d d5c2 1f3d
00000120: d932 81bc 2465 e73d c4c2 203d 801c 51bc
00000130: 20b3 61bd 828a c63c e50c 11bd 1c83 18be
00000140: 1062 b6bd ca0c a83d c914 593e 40ae b5bc
00000150: c6e9 43bd f990 a33d b89c 67bc 15d7 8dbe
00000160: b34e c3bd c141 8bbd 9a26 62bc 8735 fb3c
00000170: 3ad5 cdbc 0e32 81bd 49e5 213d 4460 df3d
00000180: 016b dd3c 41cc 9bbd 1b95 e5bd b34d ed3d
00000190: b5fe 423c 266f 15bd dd22 5d3d 24e0 cfbd
000001a0: f394 973c e5f8 77bc 9bcf e33d 1d7d bf3c
000001b0: 0c24 ea3d 6ffc 873d 94c3 21bd a1f2 67bd
000001c0: 9300 0f3e e5af a1bd fe70 b4bb 2b3b 16be
000001d0: 71ed 0ebe e535 183e 80e6 7f3d d086 0f3d
000001e0: 3094 5a3d a0ec 07bc 56b2 d0bd 0af9 6dbd
000001f0: 3c31 c4bd f435 993d b8a8 3cbb 0414 c2bc
00000200: 7f10 f4bc 285a 99bd 87ee dcbd 80a3 ebbc
00000210: 2c9d c2bb ab1b fcbd 1738 f5bd b7da 0e3e
00000220: be00 05bd f450 f83c 021f 603d f79b 513c
00000230: 76a3 86be 1267 203e 8dd0 b0bd 8512 d7bd
00000240: 1783 f3b9 eb82 dabd 51e9 8dbc f9a1 57bd
00000250: d722 643b a511 f3bd 90aa 7dbd 9ff3 7f3c
00000260: 6513 01be d3b3 b43d ebe1 9d3c e650 023e
00000270: 1b24 fabd 6535 a9bd ff38 3d3d 72f5 84bc
00000280: e9bb e93c fdae eb3d b5c6 afbd 5e38 43bd
00000290: 7369 003e 2db6 16be 4da3 093e aafc 153e
000002a0: 0575 0a3e ef19 8e3b c12a 8abc fd7b 90bd
000002b0: cf83 07bc bda4 c4bc 2eea 09be 031f 63bc
000002c0: e0b9 eabd 9fb1 843d 2c88 653e 6a29 8e3e
000002d0: bd6b 7f3c c6ea 7f3e baf8 a43e f54f 93bd
000002e0: 264f 6a3d 0d5a 09be 45af 40be deae 7fbd
000002f0: 7d8d 17be 34ca d0bc c180 333d 54c8 afbc
00000300: 86b8 bbbc c23e 8abd 93be 8a3c 26fc 80bb
00000310: ea6f 9c3d 2a17 9ebc 0f58 af3d 961e 67bc
00000320: 32a8 363d 701c b4bd 1740 acbd 1837 9d3d
00000330: c68d 0abe d9b3 b93d 16d7 31bd 5c01 9b3d
00000340: 8dbc b9bd 792d 163e c085 7ebc a8c1 fdbc
00000350: c24a d3bd a073 8abb 1a13 5ebd 5070 703d
00000360: c0cc b1bd 28ff 5b3d 7174 1e3e 36fc 2c3c
00000370: 93dd 603d fdb2 d33d 24f7 ebbd 6b86 923d
00000380: 5a53 b73d

block_2.0.bias f4 [5]
1.4644558 0.3787876 -0.07221979 0.51731503 -0.062194705
00000000: 4a73 bb3f 73f0 c13e f8e7 93bd c26e 043f
00000010: e0bf 7ebd

block_2.2.weight f4 [5, 5, 3, 3]
0.26756802 0.5530533 0.38050726 0.51791966 0.58482236 0.24919586 0.37690482 0.56455
0.4483116 0.11010069 0.106784366 -0.0027924497 0.027617319 -0.22179578 -0.19117633 -0.11832986
-0.093630984 -0.15539826 0.000110971654 -0.019669207 0.025626753 0.019952416 0.12152164 -0.08003283
-0.12542598 -0.0060872333 -0.014369215 0.15247427 -0.03775612 0.05254322 0.057421062 0.17491509
0.03926763 0.15243366 0.29951882 0.0037016657 0.069305904 0.18751238 0.024465112 0.09524946
-0.15225643 -0.008578811 0.009548641 0.07684181 0.096451186 0.15940158 0.12127104 0.051201552
0.045407627 -0.007414327 0.060300946 -0.037098285 0.051626056 0.061301745 0.059538607 0.14666015
0.39712173 -0.24386448 -0.08331301 -0.13398963 -0.1473047 -0.09983813 -0.12679096 -0.097958446
-0.08890782 -0.14048481 -0.14027819 -0.11012234 -0.018481923 0.0167104 -0.073224045 0.123204745
0.13905141 0.07798834 -0.07582578 0.13948238 0.10869394 0.04751304 -0.036606744 0.023399528
-0.10889567 0.14975387 0.06387799 0.24727525 -0.15966605 -0.048165917 0.07848527 0.019872438
-0.058268074 -0.060148392 0.46418977 0.20855722 -0.07553286 -0.14627895 -0.31699657 -0.23763016
-0.077643245 -0.17701085 -0.12937768 -0.26639235 -0.17594078 -0.16578387 -0.29801956 -0.1781442
0.34332332 0.18962632 0.20269191 0.49759412 0.030259356 -0.03709366 0.08136713 -0.02933695
-0.01973943 0.13943179 -0.0953088 0.0007297424 0.13618796 0.071357 0.093386 0.05367829
-0.15986355 -0.23603293 -0.0012384679 -0.17791982 -0.10577074 -0.15295698 0.039223142 -0.09642788
-0.23590417 0.03006358 -0.057292372 0.07311827 0.039746612 0.049959492 0.1836334 0.33279374
0.38394597 -0.10225268 0.3570614 0.04891039 -0.25076437 0.09270743 -0.21563716 -0.24486518
0.26952687 0.03913341 -0.006998257 -0.1181299 -0.35864863 -0.15743127 -0.106299065 -0.13247499
0.2941859 0.077547364 0.027698696 0.087440796 0.09281406 0.0055110008 -0.044787582 0.12300699
0.09830337 0.14003472 0.2811213 0.035359163 -0.047268216 0.2285759 0.14833935 -0.08681595
-0.16670772 -0.19162822 0.008674183 0.19673918 -0.1210252 -0.045931973 0.09367855 -0.035834603
0.12938616 -0.10070142 0.11863308 -0.09901929 0.19397844 0.051442686 0.19512635 0.010999294
0.12679169 0.08767557 0.068233006 0.003042501 -0.02660045 -0.13739619 -0.07679191 -0.047810003
0.08240735 -0.046941325 -0.1537184 -0.013337846 0.015666941 -0.06734592 0.0612332 0.14900939
-0.06978374 0.10797818 -0.078028485 0.04441508 -0.09522682 0.09057404 0.01488533 -0.14406082
0.073877245 0.07347424 0.13767715 -0.11384418 -0.105253756 -0.05275018 0.047616243 -0.032369886
0.12154796 -0.07320331 0.12941946 0.088299476 0.122689806 -0.089873165 -0.09326287 -0.01934977
0.0079786
00000000: adfe 883e e794 0d3f d9d1 c23e 6296 043f
00000010: ebb6 153f 332d 7f3e abf9 c03e 5986 103f
00000020: 1989 e53e 787c e13d c3b1 da3d 8801 37bb
00000030: b73d e23c 6f1e 63be bac3 43be ed56 f2bd
00000040: 9ac1 bfbd b920 1fbe 74b9 e838 5121 a1bc
00000050: 32ef d13c 4073 a33c 56e0 f83d 41e8 a3bd
00000060: ab6f 00be 6a77 c7bb db6c 6bbc 3722 1c3e
00000070: 29a6 1abd 8f37 573d 5932 6b3d f11c 333e
00000080: 18d7 203d 9217 1c3e 885a 993e a597 723b
00000090: 41f0 8d3d 3f03 403e 0f6b c83c 2612 c33d
000000a0: 1ce9 1bbe 248e 0cbc e771 1c3c 3d5f 9d3d
000000b0: 3388 c53d 2b3a 233e f35c f83d b8b8 513d
000000c0: 59fd 393d e2f3 f2bb 20fe 763d 5ff4 17bd
000000d0: d875 533d 8a17 7b3d c1de 733d 142e 163e
000000e0: 8a53 cb3e 9cb7 79be 03a0 aabd 9434 09be
000000f0: 0bd7 16be ef77 ccbd 7dd5 01be 709e c8bd
00000100: 4e15 b6bd 40db 0fbe 16a5 0fbe d287 e1bd
00000110: 6767 97bc 40e4 883c 7df6 95bd c552 fc3d
00000120: 7e63 0e3e 5ab8 9f3d 8c4a 9bbd 78d4 0e3e
00000130: ee9a de3d 099d 423d f4f0 15bd 5eb0 bf3c
00000140: b104 dfbd 1459 193e 77d2 823d b935 7d3e
00000150: 7f7f 23be a049 45bd e3bc a03d 86cb a23c
00000160: 81aa 6ebd 295e 76bd 48aa ed3e 0690 553e
00000170: f9b0 9abd 26ca 15be 604d a2be 5255 73be
00000180: 6c03 9fbd 5542 35be 957b 04be 9464 88be
00000190: d229 34be 3fc3 29be 0596 98be 6f6b 36be
000001a0: 13c8 af3e 672d 423e 788e 4f3e a8c4 fe3e
000001b0: 78e2 f73c 86ef 17bd cfa3 a63d 0b54 f0bc
000001c0: 96b4 a1bc 35c7 0e3e 4331 c3bd 2f4c 3f3a
000001d0: db74 0b3e 9e23 923d 2941 bf3d c4dd 5b3d
000001e0: 45b3 23be 9eb2 71be 1654 a2ba 9d30 36be
000001f0: 549e d8bd c1a0 1cbe 72a8 203d fb7b c5bd
00000200: dd90 71be e647 f63c 68ab 6abd 08bf 953d
00000210: 58cd 223d 53a2 4c3d 650a 3c3e f163 aa3e
00000220: 9194 c43e da69 d1bd c0d0 b63e 4356 483d
00000230: 3064 80be 65dd bd3d fdcf 5cbe f0bd 7abe
00000240: 6dff 893e 5b4a 203d a251 e5bb 17ee f1bd
00000250: cba0 b7be aa35 21be 53b3 d9bd 86a7 07be
00000260: 899f 963e 27d1 9e3d 60e8 e23c 2914 b33d
00000270: 4c15 be3d a095 b43b 2f73 37bd 17eb fb3d
00000280: 4753 c93d 4365 0f3e 22ef 8f3e c5d4 103d
00000290: 519c 41bd cd0f 6a3e 45e6 173e 90cc b1bd
000002a0: 6eb5 2abe 303a 44be 291e 0e3c ff75 493e
000002b0: 0fdc f7bd 2a23 3cbd 8ada bf3d 4ec7 12bd
000002c0: ce7d 043e 8c3c cebd e6f5 f23d a0ca cabd
000002d0: 49a2 463e 91b5 523d 34cf 473e 6236 343c
000002e0: aed5 013e 408f b33d bfbd 8b3d b264 473b
000002f0: 30e9 d9bc 96b1 0cbe 1445 9dbd 6cd4 43bd
00000300: 2fc5 a83d 8c45 40bd 5b68 1dbe fb86 5abc
00000310: f557 803c a8ec 89bd aacf 7a3d eb95 183e
00000320: c7ea 8ebd aa23 dd3d 66cd 9fbd 96ec 353d
00000330: 4706 c3bd e27e b93d 99e1 733c ae84 13be
00000340: f44c 973d aa79 963d 3dfb 0c3e 2327 e9bd
00000350: 488f d7bd 9310 58bd 4009 433d 4996 04bd
00000360: 23ee f83d 9eeb 95bd 8986 043e 5bd6 b43d
00000370: cb44 fb3d 6c0f b8bd 9b00 bfbd 6983 9ebc
00000380: adb8 023c

block_2.2.bias f4 [5]
-0.14331831 -0.09751408 0.69902474 0.23475696 -0.10498603
00000000: 09c2 12be 76b5 c7bd 49f3 323f 2164 703e
00000010: ea02 d7bd

classifier.1.weight f4 [10, 245]
0.0029573855 0.020192621 0.06674494 0.053909734 0.012312396 0.11985029 0.09313269 0.018026162
0.13281816 0.123772785 -0.047775898 -0.07210786 -0.06834201 0.0071634063 0.027496528 0.099454
0.071805336 0.09285717 -0.15507685 -0.27503598 -0.16344172 -0.022902565 -0.10673851 -0.10172714
0.17444941 -0.008901552 -0.21061203 -0.08232633 -0.02180609 -0.21752504 -0.205763 0.07583282
-0.034912568 0.052020505 0.074429095 0.037975334 -0.096898794 -0.20022924 -0.014357409 0.02521881
0.02441151 0.10781253 0.052937966 -0.04068099 -0.032872606 0.10709263 0.10967152 0.085435845
0.05691456 -0.04353946 0.05243716 -0.032678187 0.02435279 -0.04553421 0.03684264 0.005367734
-0.04665572 0.058795266 0.04286155 0.026437834 0.020477353 0.009174134 0.054626625 0.0349729
-0.017398313 -0.023548715 -0.013568868 0.041380025 -0.06995002 -0.017604124 0.028220039 -0.0646041
-0.039606556 -0.022876998 -0.009807065 0.009406098 0.011449455 -0.0054506594 -0.0972444 -0.08944358
-0.042291738 0.02473276 0.027797306 0.031149723 0.020617532 0.009194761 -0.06584922 0.059775498
0.054034594 -0.049618922 -0.0141237 0.047333658 -0.0104421135 0.045115117 0.02677567 -0.05469776
-0.017474642 0.034534737 -0.019014996 0.036651272 -0.018796753 0.03878177 -0.0031572646 -0.101048745
-0.042741317 -0.07370271 0.02023539 -0.083983235 -0.001775372 0.08804069 0.027829284 0.046819784
0.047893323 -0.022914479 0.09901739 -0.08246628 -0.058186386 -0.03860589 -0.06299489 0.049437173
0.10886104 -0.052810207 -0.40988547 0.0061813453 0.025461562 -0.058778252 -0.073069975 0.066298366
-0.059612937 -0.08464536 0.109048225 0.0783806 -0.064112954 -0.03816526 0.103440315 0.010475693
0.011974274 0.034543436 0.08643598 -0.05171551 0.05945064 -0.039518885 -0.0062325536 -0.07338069
-0.0069591366 -0.03264204 -0.0477482 -0.055856064 -0.011226366 0.029061403 0.076187275 0.07730947
0.034624673 0.06927995 0.02013836 0.026720664 -0.00046531693 0.07420585 0.040598407 0.005830188
0.032807853 -0.021391913 -0.017704414 0.086655326 -0.044471215 -0.098794326 -0.14476089 -0.029787285
0.026332162 0.09775559 0.024996893 -0.017861092 0.047321696 0.045093983 -0.08190889 0.06677951
-0.053169012 -0.066053875 0.13067098 0.05992397 0.007857781 -0.0361164 0.03155357 -0.07925335
-0.074122205 0.061465766 0.07569184 0.061205715 -0.04039985 0.054919645 0.026165871 -0.060214642
-0.033348143 0.024427678 -0.031810373 0.013044428 -0.020969715 -0.01542887 0.05297269 0.004248391
0.0136899445 -0.042324714 0.047197312 0.009647228 0.04227672 -0.041513927 0.013986905 0.03578297
-0.03698311 0.030513946 0.056305505 0.04287705 -0.02194608 0.03318934 0.035548188 -0.008952415
-0.009030932 0.055366527 -0.0103183845 0.021695456 0.028504215 0.04130106 -0.047756337 -0.014254398
-0.018182015 -0.05756172 0.0442076 0.03759022 0.049888056 0.0075650513 0.032174207 0.04504659
-0.026650036 -0.071262 0.008570336 0.0263326 0.02154038 -0.02280126 -0.06202957 -0.018140791
0.017755874 -0.002863839 0.058565434 -0.030339977 0.008688441 -0.08644752 0.015855402 0.038073197
-0.048721187 -0.004779804 0.004537943 -0.10634765 -0.075693615 0.07935598 0.13177238 -0.043090053
00000000: b2d0 413b ff6a a53c 92b1 883d 74d0 5c3d
00000010: efb9 493c 1274 f53d 5abc be3d 9aab 933c
00000020: 7c01 083e 967c fd3d a9b0 43bd 49ad 93bd
00000030: e5f6 8bbd 02bb ea3b 6640 e13c 8aae cb3d
00000040: ad0e 933d e62b be3d 77cc 1ebe 84d1 8cbe
00000050: 445d 27be 299e bbbc b899 dabd 5256 d0bd
00000060: dea2 323e d1d7 11bc aeaa 57be b59a a8bd
00000070: afa2 b2bc e2be 5ebe 89b3 52be 3d4e 9b3d
00000080: 7b00 0fbd 7413 553d 486e 983d 068c 1b3d
00000090: e072 c6bd e508 4dbe 573b 6bbc ae97 ce3c
000000a0: a6fa c73c d1cc dc3d 7bd5 583d 1ca1 26bd
000000b0: 6da5 06bd 6153 db3d 769b e03d fdf8 ae3d
000000c0: 3e1f 693d 6f56 32bd 59c8 563d 90d9 05bd
000000d0: 817f c73c 1482 3abd 4fe8 163d d1e3 af3b
000000e0: 111a 3fbd 4ed3 703d 988f 2f3d 2894 d83c
000000f0: 1fc0 a73c 1b4f 163c 2bc0 5f3d be3f 0f3d
00000100: e886 8ebc 3ce9 c0bc f54f 5ebc 1a7e 293d
00000110: f541 8fbd 8636 90bc b62d e73c 284f 84bd
00000120: 7c3a 22bd 8b68 bbbc d0ad 20bc 091c 1a3c
00000130: 7f96 3b3c 729b b2bb 1228 c7bd 322e b7bd
00000140: 1a3a 2dbd 5b9c ca3c 2db7 e33c b42d ff3c
00000150: 19e6 a83c 9fa5 163c f5db 86bd 27d7 743d
00000160: 6153 5d3d 363d 4bbd 1767 67bc f0e0 413d
00000170: 6615 2bbc a1ca 383d a658 db3c c20a 60bd
00000180: fb26 8fbc 4c74 0d3d 56c5 9bbc a51f 163d
00000190: a6fb 99bc a2d9 1e3d 1cea 4ebb a5f2 cebd
000001a0: 8511 2fbd 72f1 96bd b0c4 a53c 67ff abbd
000001b0: 99b3 e8ba ad4e b43d 3dfa e33c 1ac6 3f3d
000001c0: ca2b 443d 25b7 bbbc a1c9 ca3d 15e4 a8bd
000001d0: d954 6ebd 3621 1ebd 7703 81bd a27e 4a3d
000001e0: 89f2 de3d 844f 58bd 82dc d1be e28c ca3b
000001f0: c494 d03c 77c1 70bd b6a5 95bd 70c7 873d
00000200: b22c 74bd 8c5a adbd ad54 df3d 0286 a03d
00000210: a74d 83bd 2d53 1cbd 84d8 d33d 3ea2 2b3c
00000220: bf2f 443c 6b7d 0d3d 5905 b13d a5d3 53bd
00000230: 8482 733d 8ede 21bd 733a ccbb 9d48 96bd
00000240: 7809 e4bb a9b3 05bd 9e93 43bd 54c9 64bd
00000250: cbee 37bc 2e12 ee3c 1308 9c3d 6d54 9e3d
00000260: 9ad2 0d3d a5e2 8d3d 34f9 a43c 4be5 da3c
00000270: c8f5 f3b9 3df9 973d 844a 263d 290b bf3b
00000280: 8761 063d 183e afbc d908 91bc 5978 b13d
00000290: 7327 36bd ae54 cabd 333c 14be 7704 f4bc
000002a0: 8cb6 d73c 1534 c83d 49c6 cc3c 6d51 92bc
000002b0: 65d4 413d 78b4 383d d9bf a7bd b2c3 883d
000002c0: c0c7 59bd 4147 87bd 9dce 053e d672 753d
000002d0: ecbd 003c caee 13bd 513e 013d 954f a2bd
000002e0: 62cd 97bd 87c3 7b3d 5304 9b3d d8b2 7a3d
000002f0: 507a 25bd 6cf3 603d cf59 d63c a1a3 76bd
00000300: 1098 08bd 8e1c c83c 984b 02bd 4cb8 553c
00000310: aec8 abbc 5fc9 7cbc e4f9 583d 1636 8b3b
00000320: ca4b 603c ae5c 2dbd f851 413d 680f 1e3c
00000330: 5b2a 2d3d 820a 2abd 5529 653c 2a91 123d
00000340: 9a7b 17bd 62f8 f93c 9aa0 663d d89f 2f3d
00000350: 44c8 b3bc 8cf1 073d fa9a 113d 26ad 12bc
00000360: 79f6 13bc 03c8 623d 710e 29bc abba b13c
00000370: ac81 e93c 4d2b 293d 269c 43bd 478b 69bc
00000380: 73f2 94bc d7c5 6bbd 0713 353d 34f8 193d
00000390: 6b57 4c3d 40e4 f73b 1ac9 033d c682 383d
000003a0: 2d51 dabc d0f1 91bd 986a 0c3c 77b7 d73c
000003b0: 7375 b03c b5c9 babc b812 7ebd ff9b 94bc
000003c0: c474 913c 3faf 3bbb 4fe2 6f3d 8b8b f8bc
000003d0: f659 0e3c 660b b1bd 30e3 813c a4f2 1b3d
000003e0: de8f 47bd e79f 9cbb 06b3 943b cccc d9bd
000003f0: 4105 9bbd 6385 a23d 57ef 063e 327f 30bd

classifier.1.bias f4 [10]
0.016459476 0.020601198 0.056292303 0.05686583 0.022282802 -0.0566371 -0.033650573 0.057120558
0.029696742 0.047612287
00000000: 06d6 863c d8c3 a83c c292 663d 25ec 683d
00000010: 6c8a b63c 4efc 67bd 2fd5 09bd 3ff7 693d
00000020: 9546 f33c 1a05 433d
